model/NIH_dataset/best_model.pt (torch, 490530 bytes, 58 tensors)

convs.0.convs.<pi___IsMappedTo___author>.lin_l.weight f4 [64, 10]
-0.051187195 -0.015687207 0.006669493 0.006128337 0.025462566 -0.007492344 -0.037141398 -0.008144903
0.009891297 -0.017781511 -0.25049838 0.09479529 -0.015793523 -0.015766675 0.05367711 -0.11620741
-0.056657564 -0.035110287 -0.036636416 0.00820413 -0.0046503595 0.001627956 0.0022301453 0.0001343063
-4.47689e-05 -0.0013162085 -0.0009917982 -0.00094965316 -0.00033222674 -0.00015984195 0.0063111214 0.02009324
0.039422527 0.004544322 0.018926078 0.037902724 0.010026672 0.02474631 0.017952722 -0.00027892186
0.21954486 -0.12481114 0.007529909 0.033162694 0.04889478 0.122445785 0.15141404 0.16729571
0.038153086 -0.10848065 0.04056535 -0.006255466 -0.0049797753 0.0057585575 0.016257744 0.037916183
0.04922123 0.021478273 0.029386662 -0.020947408 -0.014229657 -0.02221938 0.015187964 0.034455203
-0.028074784 0.097299166 0.03162921 0.05404963 0.006912327 -0.011204313 1.6211166e-20 -4.2369055e-22
3.5691677e-22 -3.832198e-22 8.6357664e-23 -1.2042706e-22 7.9912145e-22 2.5424435e-23 1.1485257e-21 -3.4134016e-22
0.2108333 -0.14636159 0.021056704 0.01920233 0.051759332 0.11404083 0.11968839 0.08459247
0.028928006 -0.06456897 -0.15759622 0.13439871 0.05444245 -0.05425463 0.07208114 -0.16493903
-0.08648817 -0.06268541 0.02289194 0.026211271 0.081170164 -0.081051216 0.08514771 0.09200091
-0.0051212898 0.11780841 0.06942434 0.13845628 0.01692896 -0.042797342 0.03043883 -0.04374819
0.035462007 0.017200125 0.028882537 0.06665993 0.12152612 0.09974148 0.021479907 -0.042147033
0.102521665 -0.015678797 -0.002947412 -0.0073642433 0.06646518 0.09608513 0.15053435 0.06525075
0.030850695 -0.08077773 0.22358099 -0.06154663 -0.0073344023 0.02436154 0.042428304 0.05649428
0.1786847 0.14646138 0.070200905 -0.07718947 -0.17663608 0.09371231 0.00666122 -0.025591593
0.034987386 -0.12603024 -0.07458896 -0.0627215 -0.0011026734 0.010794836 -0.19356342 0.026454328
-0.0014839191 -0.040125076 -0.007962752 -0.044255633 -0.041396998 -0.015024448 0.018149452 0.019962078
-0.1248576 -0.10364351 -0.012065799 0.037652843 0.04661756 0.10047757 0.14059553 0.098915
-0.009297741 -0.051492386 0.1835234 -0.07292845 0.024190592 0.06750639 0.040548958 0.066837646
0.12822896 0.17057607 0.012882733 -0.06076537 -0.17113695 -0.10474104 0.021991963 0.058607116
-0.010411398 0.09108788 0.14175592 0.08084895 -0.024152908 -0.039457884 -0.058557674 0.06941849
0.006614407 -0.018929472 0.059011117 -0.05848951 -0.07744276 -0.007508047 -0.001631195 0.020414546
-0.11846818 0.04033205 -0.003919404 -0.008122681 0.010479669 -0.047264706 -0.033973884 -0.0097247865
0.008607543 0.022039989 0.11765839 -0.12064644 -0.0027501879 0.03452757 0.020203214 0.07252416
0.062457945 0.049092736 0.040592916 -0.046671774 0.0635124 -0.05225231 -0.030920476 -0.016972963
0.038195573 0.02958705 0.08022169 0.047308818 0.015205496 -0.036525924 0.10423583 -0.09337094
0.009240458 0.015288591 0.04416872 0.09960004 0.11430142 0.05873568 0.03995933 -0.028955584
-0.06820587 0.09632195 -0.0018728337 -0.051223192 0.05327668 -0.11406674 -0.05244363 -0.038669825
-0.0021299075 0.012203928 0.2430676 -0.062145837 0.023295203 0.12715918 0.06311002 0.21794695
00000000: aaa9 51bd 7582 80bc c38b da3b 37d0 c83b
00000010: df96 d03c 5682 f5bb 9421 18bd 3372 05bc
00000020: 1b0f 223c 88aa 91bc 5341 80be 0824 c23d
00000030: 6b61 81bc 1d29 81bc 87dc 5b3d 27fe edbd
00000040: c311 68bd cecf 0fbd 1110 16bd 9e6a 063c
00000050: 0b62 98bb 2461 d53a a127 123b 93d4 0c39
00000060: 3ec6 3bb8 a184 acba 3aff 81ba 25f2 78ba
00000070: b82e aeb9 3f9b 27b9 86cd ce3b 949a a43c
00000080: 8479 213d 89e8 943b dd0a 9b3c e33f 1b3d
00000090: e946 243c c6b8 ca3c 9611 933c 423c 92b9
000000a0: 5ed0 603e fc9c ffbd 74bd f63b 9bd5 073d
000000b0: e545 483d dbc4 fa3d 480c 1b3e 914f 2b3e
000000c0: 6946 1c3d 1a2b debd da27 263d a7fa ccbb
000000d0: 622d a3bb 48b2 bc3b f62e 853c 004e 1b3d
000000e0: 339c 493d 34f3 af3c 4cbc f03c e699 abbc
000000f0: 8223 69bc 6b05 b6bc f0d6 783c e620 0d3d
00000100: 17fd e5bc c944 c73d a18d 013d 2563 5d3d
00000110: cd80 e23b 4b92 37bc 321c 991e 780d 009c
00000120: 32be d71b 64a4 e79b cecc d01a 5f96 119b
00000130: 0785 711c dae3 f519 708f ad1c d553 ce9b
00000140: afe4 573e d0df 15be 1c7f ac3c 344e 9d3c
00000150: 9801 543d 3d8e e93d 301f f53d d13e ad3d
00000160: 6dfa ec3c bc3c 84bd e760 21be d19f 093e
00000170: 0cff 5e3d 1a3a 5ebd 479f 933d c7e5 28be
00000180: b620 b1bd 3561 80bd e187 bb3c 05b9 d63c
00000190: 8b3c a63d 2efe a5bd ec61 ae3d f96a bc3d
000001a0: 7ed0 a7bb 8945 f13d 592e 8e3d 7cc7 0d3e
000001b0: 9aae 8a3c 444c 2fbd da5a f93c 4d31 33bd
000001c0: 9c40 113d 47e7 8c3c 129b ec3c 0085 883d
000001d0: b0e2 f83d 4345 cc3d a1f6 af3c 5ea2 2cbd
000001e0: e1f6 d13d d270 80bc 5e29 41bb c04f f1bb
000001f0: e51e 883d 48c8 c43d ad25 1a3e 2fa2 853d
00000200: 99ba fc3c cb6e a5bd 6af2 643e 5218 7cbd
00000210: 6d55 f0bb da91 c73c 4dc9 2d3d 8c66 673d
00000220: 1ff9 363e f9f9 153e 7ec5 8f3d 8315 9ebd
00000230: 17e0 34be 3dec bf3d 5d46 da3b 76a5 d1bc
00000240: ef4e 0f3d 120e 01be 19c2 98bd 2174 80bd
00000250: 9487 90ba d3dc 303c 7d35 46be bfb6 d83c
00000260: 1080 c2ba 315a 24bd 3476 02bc 6545 35bd
00000270: e68f 29bd 1a29 76bc 29ae 943c 8387 a33c
00000280: 57b5 ffbd 0c43 d4bd a1af 45bc de39 1a3d
00000290: 0ef2 3e3d 2fc7 cd3d 46f8 0f3e f393 ca3d
000002a0: 8d55 18bc aee9 52bd 8fed 3b3e 835b 95bd
000002b0: 592b c63c ca40 8a3d aa16 263d 2de2 883d
000002c0: 744e 033e 7eab 2e3e 1912 533c 1ce5 78bd
000002d0: 863e 2fbe 7882 d6bd 7d28 b43c 040e 703d
000002e0: 9194 2abc 488c ba3d 7728 113e 2294 a53d
000002f0: 52dc c5bc 979e 21bd 2cda 6fbd 482b 8e3d
00000300: abbd d83b fb11 9bbc a4b5 713d b292 6fbd
00000310: 4f9a 9ebd 1006 f6bb d2cd d5ba 683c a73c
00000320: 729f f2bd 3833 253d 586e 80bb fe14 05bc
00000330: ebb2 2b3c a398 41bd 3328 0bbd b654 1fbc
00000340: a706 0d3c 358d b43c e2f6 f03d 7b15 f7bd
00000350: 7f3c 34bb c86c 0d3d 3681 a53c 8c87 943d
00000360: e7d3 7f3d 7715 493d c244 263d e72a 3fbd
00000370: ca12 823d 8506 56bd f04c fdbc e20a 8bbc
00000380: f672 1c3d 8b60 f23c 454b a43d e4c6 413d
00000390: 7920 793c 359c 15bd 9879 d53d 4339 bfbd
000003a0: 4a65 173c 007d 7a3c 42ea 343d 1bfb cb3d
000003b0: dd16 ea3d d394 703d 65ac 233d 4334 edbc
000003c0: 85af 8bbd 7144 c53d df79 f5ba 69cf 51bd
000003d0: a638 5a3d d39b e9bd 22cf 56bd 4064 1ebd
000003e0: eb95 0bbb fcf2 473c b7e6 783e a28c 7ebd
000003f0: 95d5 be3c 0436 023e d33f 813d 7c2d 5f3e

convs.0.convs.<pi___IsMappedTo___author>.lin_l.bias f4 [64]
-0.25511402 -0.33240065 -0.05135874 0.14322932 0.30429286 -0.0047987727 0.20295092 -5.4848853e-10
0.24893051 -0.29364863 0.10204913 0.26214436 0.04680547 0.0996026 -0.4045957 -0.21958211
0.06172482 0.24950631 0.16946647 -0.175883 0.057753764 0.14801669 -0.103324376 0.28781277
-0.450512 0.23047853 -0.14506853 0.1809085 -0.010960294 -2.5440284e-13 -0.06938733 -0.103030495
0.16695753 -0.0049974537 -0.0763903 0.27610537 -0.050771017 0.02632705 -0.022742892 0.15206869
-0.069235325 -0.09214832 0.17695694 0.14903398 -0.2743111 -0.16548616 -0.08375695 -0.22597648
-0.14229971 0.39243403 -0.14000769 -0.14195131 -0.14713067 -0.14294906 0.090519086 -0.0031079971
-0.27295005 -0.0621414 -0.31130528 -0.035583816 0.10425186 -0.08689739 -0.04293693 -0.14974871
00000000: 4e9e 82be 6b30 aabe 8b5d 52bd b5aa 123e
00000010: 46cc 9b3e 063f 9dbb 5ed2 4f3e 73c4 16b0
00000020: a4e7 7e3e 1d59 96be 22ff d03d c937 863e
00000030: 18b7 3f3d 73fc cb3d 2b27 cfbe 22da 60be
00000040: 2ad3 7c3d 957e 7f3e 9e88 2d3e ac1a 34be
00000050: 368f 6c3d b091 173e bb9b d3bd 325c 933e
00000060: 82a9 e6be 9002 6c3e d88c 14be 1440 393e
00000070: ce92 33bc 5037 8faa f21a 8ebd a701 d3bd
00000080: eaf6 2a3e aec1 a3bb 8572 9cbd af5d 8d3e
00000090: 45f5 4fbd d3ab d73c 4d4f babc e5b7 1b3e
000000a0: 40cb 8dbd 42b8 bcbd 3334 353e 5d9c 183e
000000b0: 8172 8cbe 3475 29be c488 abbd 6166 67be
000000c0: 04b7 11be 1ded c83e 2d5e 0fbe af5b 11be
000000d0: 6ca9 16be 3d61 12be 1262 b93d 8aaf 4bbb
000000e0: 1cc0 8bbe fb87 7ebd 6863 9fbe 56c0 11bd
000000f0: 0082 d53d 42f7 b1bd a2de 2fbd ba57 19be

convs.0.convs.<pi___IsMappedTo___author>.lin_r.weight f4 [64, 4]
0.21968131 -0.09664392 -0.21381304 -0.24755152 0.27136084 -0.05361744 -0.01978717 -0.121856205
-0.0049540484 -0.05152231 0.014335644 -0.004474928 0.12966895 0.013670087 -0.09933753 -0.011559808
-0.17016952 0.33743098 -0.13741754 -0.06648116 -0.021575931 -0.002444163 0.010739127 0.015223029
0.0570075 -0.06771655 -0.31589517 0.10653584 -0.0046299994 -0.016064763 -1.18666685e-08 -2.5653532e-18
-0.2638034 0.0718767 0.3696782 0.34876367 -0.2105075 -0.094211504 -0.010014239 0.09355415
0.087629996 0.010211397 -0.016833302 -0.11095561 0.037847057 -0.011346398 0.088295534 0.12028886
-0.0224531 0.047343586 0.26971868 -0.13020246 -0.12746567 -0.043836072 0.42061314 0.23198593
-0.1769104 -0.08215796 -0.2231919 0.023244636 0.26817873 0.14331387 -0.4022143 0.05387377
0.29369307 0.06531871 0.41267854 0.16367278 0.27365574 -0.013219004 0.060725514 0.12947442
-0.14263614 -0.101048306 0.28270975 -0.006422733 0.063953266 -0.040788535 -0.21652259 -0.13266237
-0.09722513 -0.026287546 -0.356172 -0.15470305 -0.4795395 -0.03563619 -0.044366382 0.2786764
-0.36768636 0.117934324 0.36958602 0.035951022 -0.25187975 -0.0914941 -0.34274262 0.23953821
-0.05534081 -0.16334708 -0.47365892 -0.13158967 -0.3808768 0.020968439 0.29320416 -0.23647305
-0.06772966 0.04465377 0.1482315 0.040480465 -0.12773278 -0.014463683 -0.0076294807 0.042672858
-0.001229546 0.037677463 -0.006411792 -0.0036940877 2.9686905e-28 -6.1879e-41 -4.0222285e-23 4.972e-41
-0.0558029 -0.059279975 -0.29872867 -0.17830886 -0.36701748 -0.0030057493 0.06945928 -0.016229756
0.09006476 -0.013524071 0.28808194 -0.13065803 -0.04502682 0.10513981 0.023653837 0.032601982
-0.017341776 -0.0021201142 0.06652196 0.17193139 -0.2085303 -0.013042708 0.39386111 0.12012972
-0.37604722 -0.0040815184 0.33431536 0.23762812 -0.22581019 -0.010053322 0.35185844 -0.076411225
-0.22070412 0.27402857 0.1847707 0.20481102 -0.42652097 0.07588413 -0.1275832 -0.09470371
0.2001139 0.03425386 0.4855099 0.28697017 -0.24484406 -0.06251008 0.29385605 -0.09638065
-0.21963975 -0.02134793 0.47852674 0.048502546 -0.1266245 0.026853157 0.049765598 0.10136175
0.3643818 -0.1068115 -0.42809308 -0.17703286 0.034004837 -0.19370873 0.28996676 -0.005447911
0.14500065 0.17448239 0.13641769 -0.056250695 0.14952628 -0.10865959 -0.19141239 0.12633803
0.31424534 0.021633953 -0.033729255 -0.04566713 0.029019237 -0.030488916 -0.07422091 0.3867665
-0.19233188 -0.020174192 0.013504475 0.015205375 0.1957621 -0.06331558 -0.024397723 -0.3260549
0.20278016 -0.24512173 -0.27144387 -0.3920253 -0.058518093 0.017168479 0.36865065 0.39936465
-0.064659946 -0.025189428 -0.32755402 -0.10719811 -0.11355802 0.027075807 0.12324067 -0.01625081
0.109920174 -0.28767908 -0.4194176 -0.2622999 0.012517745 0.004340751 0.04559969 0.09442698
0.09549812 0.12157603 -0.42826444 -0.08446821 -0.07586071 0.0008741739 0.41131863 0.09787216
0.058088887 -0.021495985 0.4862057 0.28164726 -0.14228064 -0.05866114 -0.16174708 0.030445412
-0.09333399 -0.11604334 -0.26569495 -0.22097227 0.12880698 -0.063508764 -0.19550224 0.04068021
00000000: 23f4 603e 3fed c5bd cef1 5abe 257e 7dbe
00000010: cfef 8a3e f69d 5bbd b418 a2bc bf8f f9bd
00000020: 9255 a2bb 0f09 53bd 0de0 6a3c 6ba2 92bb
00000030: f0c7 043e 80f8 5f3c 7a71 cbbd 5965 3dbc
00000040: eb40 2ebe c1c3 ac3e 2fb7 0cbe 4627 88bd
00000050: 02c0 b0bc 402e 20bb 2af3 2f3c 036a 793c
00000060: b280 693d f9ae 8abd 03bd a1be 762f da3d
00000070: 40b7 97bb 409a 83bc 29de 4bb2 274a 3da2
00000080: 3d11 87be 1734 933d 7646 bd3e 2791 b23e
00000090: 478f 57be f6f1 c0bd c312 24bc 5199 bf3d
000000a0: 5b77 b33d b44d 273c fee5 89bc b23c e3bd
000000b0: 8405 1b3d 3ee6 39bc 4ad4 b43d 015a f63d
000000c0: 90ef b7bc 59eb 413d 9118 8a3e cb53 05be
000000d0: 5c86 02be 748d 33bd 9b5a d73e b88d 6d3e
000000e0: 0028 35be 6f42 a8bd 6b8c 64be 896b be3c
000000f0: b94e 893e dfc0 123e 08ef cdbe beaa 5c3d
00000100: f05e 963e d1c5 853d 9a4a d33e d699 273e
00000110: 9b1c 8c3e 8594 58bc 51bb 783d f194 043e
00000120: 350f 12be 6af2 cebd 55bf 903e ca75 d2bb
00000130: eef9 823d e111 27bd 19b8 5dbe a5d8 07be
00000140: f81d c7bd fb58 d7bc 2d5c b6be 7a6a 1ebe
00000150: 3486 f5be 41f7 11bd 86b9 35bd acae 8e3e
00000160: 6341 bcbe 8d87 f13d 613a bd3e 6141 133d
00000170: 62f6 80be 4261 bbbd f67b afbe 8149 753e
00000180: 0cad 62bd 7544 27be 6c83 f2be 71bf 06be
00000190: 4902 c3be 01c6 ab3c db1e 963e fe25 72be
000001a0: d9b5 8abd dfe6 363d 00ca 173e d8ce 253d
000001b0: 62cc 02be 15f9 6cbc b900 fabb bcc9 2e3d
000001c0: b828 a1ba af53 1a3d 021a d2bb 8218 72bb
000001d0: c229 bc11 7eac 0080 c780 429a 998a 0000
000001e0: 9591 64bd 8fcf 72bd f7f2 98be 9996 36be
000001f0: b7e9 bbbe 1bfc 44bb ab40 8e3d 44f4 84bc
00000200: df73 b83d 1194 5dbc 7a7f 933e 38cb 05be
00000210: 0b6e 38bd 8a53 d73d b1c5 c13c a889 053d
00000220: 5710 8ebc 9df1 0abb aa3c 883d c80e 303e
00000230: f888 55be 15b1 55bc 2aa8 c93e 9206 f63d
00000240: 4389 c0be 42be 85bb 622b ab3e c954 733e
00000250: c93a 67be b0b6 24bc ca26 b43e 7d7d 9cbd
00000260: 4300 62be 794d 8c3e 8834 3d3e fbb9 513e
00000270: f560 dabe 2469 9b3d 2ca5 02be 05f4 c1bd
00000280: a8ea 4c3e c74d 0c3d c194 f83e c1ed 923e
00000290: 67b8 7abe 4905 80bd 4d74 963e 3863 c5bd
000002a0: 3ee9 60be dbe1 aebc 7501 f53e 9baa 463d
000002b0: daa9 01be 27fb db3c 03d7 4b3d c096 cf3d
000002c0: 4090 ba3e fdbf dabd 042f dbbe 1a48 35be
000002d0: a848 0b3d 955b 46be 8676 943e 6484 b2bb
000002e0: 0d7b 143e 83ab 323e 14b1 0b3e 2167 66bd
000002f0: 6b1d 193e eb88 debd 9c01 44be c25e 013e
00000300: c4e4 a03e b039 b13c b027 0abd 750d 3bbd
00000310: c0b9 ed3c e4c3 f9bc 2201 98bd 4206 c63e
00000320: a6f2 44be 5944 a5bc e041 5d3c f71f 793c
00000330: dc75 483e 99ab 81bd bcdd c7bc abf0 a6be
00000340: 9aa5 4f3e 3101 7bbe b1fa 8abe 8ab7 c8be
00000350: abb0 6fbd e9a4 8c3c c7bf bc3e 8679 cc3e
00000360: 6f6c 84bd 0f5a cebc 29b5 a7be af8a dbbd
00000370: 1b91 e8bd 15ce dd3c 9b65 fc3d 6b20 85bc
00000380: d41d e13d ac4a 93be e7bd d6be 2c4c 86be
00000390: 3a17 4d3c dc3c 8e3b bec6 3a3d ef62 c13d
000003a0: 8594 c33d dbfc f83d 7a45 dbbe abfd acbd
000003b0: dc5c 9bbd d128 653a 5b98 d23e 3371 c83d
000003c0: 9dee 6d3d 5918 b0bc f4ef f83e 1234 903e
000003d0: 04b2 11be aa46 70bd 07a1 25be a868 f93c
000003e0: e425 bfbd 21a8 edbd 2b09 88be 8e46 62be
000003f0: fae5 033e e210 82bd bd31 48be 4ba0 263d

convs.0.convs.<author___rev_IsMappedTo___pi>.lin_l.weight f4 [64, 4]
-0.014753853 0.1454906 -0.009528374 -0.015452246 0.21564691 -0.034896236 0.035850894 -0.21976595
0.14715053 -0.009978142 -0.22622074 -0.15243016 -4.4886685e-05 -4.9623e-41 -6.4158054e-12 2.7474e-41
0.019897403 0.14489415 -0.17913255 -0.1069322 -4.9417072e-20 -2.083437e-23 -1.8283276e-21 7.292487e-23
0.16736074 -0.024945583 0.027861299 -0.056750458 -0.10141014 0.14147474 -0.0023099906 0.022143325
0.22226669 -0.0943593 -0.23051691 0.08121808 -0.020026067 0.10825208 0.009980663 -0.0010934096
-0.25232914 0.1856561 0.5538206 0.27801675 -0.04821545 -4.994942e-10 0.02734993 -0.043241877
0.27532616 0.10696816 -0.31255066 -0.11698092 0.015283534 0.048785254 -0.12553114 0.04583475
-0.05211806 -0.018393425 0.08845892 0.27007306 0.12454814 0.08280492 -0.31717154 -0.15791574
0.06379049 0.08205301 0.019613035 0.021847526 -0.03990994 -1.7537459e-05 -0.0029453791 9.861644e-05
-0.20735845 4.9232e-41 0.32078975 -0.069164224 -0.004036459 5.6744e-41 0.0028715918 -0.00019213553
-0.042221818 0.05584113 0.25416923 -0.13207263 4.138042e-27 -5.7602e-41 -4.9372e-41 -2.9052534e-24
-0.056930657 0.014840328 0.1291707 0.0065003303 -3.923906e-27 -6.161917e-36 -1.4382864e-27 7.41076e-28
-0.094667256 0.14063755 -0.003495286 -0.0022272733 -0.08379797 0.29433364 0.23018733 0.39132196
0.040886134 -0.07394029 -0.0652816 -0.055404916 0.2353788 0.08285981 0.07847365 -0.13395245
-0.024674376 -0.0065546446 -0.0010505047 -0.015909618 0.2715565 -0.11469189 -0.098116495 -0.11439173
-1.1515572e-24 5.8628e-41 -5.0653e-41 2.4683645e-08 -0.05203895 -0.008145869 0.23698848 0.3246035
-5.7368723e-18 -4.9655e-41 -5.0096e-41 -2.354384e-23 -3.1338324e-05 4.9099e-41 -2.3291551e-11 1.4401414e-08
0.19344778 0.12219682 -0.02717317 -0.098458305 -0.07035387 5.0161e-41 0.13895695 -0.04515822
0.032946456 0.090163484 0.016545666 -0.057309885 -0.037140183 0.07223448 -0.0034284063 -0.00318007
-0.050307993 0.054210864 -0.022716256 0.051272232 -0.06066456 0.08462917 0.12776211 0.039805647
0.1848124 -0.009343796 -0.20585413 -0.094104186 -3.6947035e-19 4.9197e-41 -8.7584145e-32 -1.723706e-27
0.27691948 0.110620536 -0.36414498 -0.25169802 0.095433556 -0.121505916 -0.1119141 -0.12797916
0.0055585653 0.008791077 -0.034008417 -0.03010781 0.088034585 0.086358145 0.07224333 -0.030659026
0.28018805 0.056897815 -0.33301547 -0.004269472 0.03683007 -0.06597174 0.07854677 -0.14624353
-0.041186724 0.013752105 0.059407882 0.06546665 0.22976625 -0.06427749 0.048059117 -0.18101728
0.060238685 0.10488686 -0.047643017 0.12210418 0.02669071 -0.07447034 0.08963649 -0.043661643
-0.00023146441 -1.4338887e-22 0.00013590498 -2.5120419e-06 -0.009678722 0.03568801 -0.036084246 0.07812876
0.002342974 0.11380798 -0.14025244 0.048166245 0.011650312 0.19000635 0.17266396 -0.126112
0.1390162 0.17722918 -0.0141769545 -0.01733167 -0.23342185 -5.3713e-41 0.4012166 0.18289685
0.09394235 0.13250412 0.161068 -0.058302365 -0.027550522 0.0013446194 -0.008687389 -0.0012569492
0.16948967 0.031150298 0.11323412 -0.25645328 0.16216716 -0.078299336 0.022590056 -0.2192768
0.22418772 -0.040017776 -0.4697554 -0.16505818 7.248427e-35 -4.1889876e-19 7.998674e-33 3.8166792e-08
00000000: 25ba 71bc 7dfb 143e e61c 1cbc 6b2b 7dbc
00000010: 8bd2 5c3e 5bef 0ebd 63d8 123d 530a 61be
00000020: a1ae 163e 5c7b 23bc 69a6 67be a716 1cbe
00000030: b644 3cb8 548a 0080 70bc e1ac 964c 0000
00000040: e1ff a23c 225f 143e 866e 37be 45ff dabd
00000050: 935d 699f 677f c999 0025 0a9d 4f52 b01a
00000060: 9d60 2b3e ae5a ccbc 613d e43c 2b73 68bd
00000070: 1fb0 cfbd c1de 103e 3663 17bb eb65 b53c
00000080: e199 633e 733f c1bd a00c 6cbe aa55 a63d
00000090: b50d a4bc 44b3 dd3d ef85 233c bd50 8fba
000000a0: 4931 81be a21c 3e3e 30c7 0d3f 3658 8e3e
000000b0: 907d 45bd c84c 09b0 f60c e03c 651e 31bd
000000c0: 8df7 8c3e 1f12 db3d a406 a0be b193 efbd
000000d0: ca67 7a3c 0cd3 473d 3c8b 00be 38bd 3b3d
000000e0: bf79 55bd cfad 96bc f329 b53d 0447 8a3e
000000f0: 1813 ff3d a095 a93d 4f64 a2be aab4 21be
00000100: 97a4 823d 690b a83d 84ab a03c 95f9 b23c
00000110: 9b78 23bd 681d 93b7 4307 41bb 4cd0 ce38
00000120: c655 54be 3d89 0000 8e3e a43e f9a5 8dbd
00000130: 4644 84bb 2e9e 0000 5131 3c3b fd77 49b9
00000140: c9f0 2cbd abb9 643d 7822 823e 0c3e 07be
00000150: bbec a313 92a0 0080 a189 0080 79c8 6098
00000160: 1f30 69bd d924 733c 5345 043e b900 d53b
00000170: 2271 9b93 ab0c 0385 d4e7 e392 3adb 6a12
00000180: e8e0 c1bd 4a03 103e 2b11 65bb 72f7 11bb
00000190: 459e abbd e6b2 963e 3ab6 6b3e 5a5b c83e
000001a0: 3878 273d 026e 97bd 5cb2 85bd 44f0 62bd
000001b0: 2407 713e 67b2 a93d cbb6 a03d d52a 09be
000001c0: eb21 cabc 58c8 d6bb 17b1 89ba e354 82bc
000001d0: 7409 8b3e 95e3 eabd 4df1 c8bd 3646 eabd
000001e0: e131 b297 6ea3 0000 338d 0080 e907 d432
000001f0: cb26 55bd 4076 05bc 1cad 723e 6e32 a63e
00000200: 3aa7 d3a2 6b8a 0080 a68b 0080 b9b3 e399
00000210: 4571 03b8 de88 0000 e9df ccad 176a 7732
00000220: 2d17 463e 5442 fa3d 459a debc 82a4 c9bd
00000230: b115 90bd d48b 0000 bb4a 0e3e d3f7 38bd
00000240: ddf2 063d a2a7 b83d c78a 873c c5bd 6abd
00000250: 4e20 18bd acef 933d 1daf 60bb b968 50bb
00000260: c10f 4ebd 360c 5e3d 7117 babc d502 523d
00000270: 677b 78bd 0f52 ad3d 12d4 023e 3f0b 233d
00000280: 763f 3d3e b916 19bc 6dcb 52be b2b9 c0bd
00000290: c818 daa0 2489 0000 a661 e38b e990 0893
000002a0: 64c8 8d3e 058d e23d 3671 babe 90de 80be
000002b0: ab72 c33d 18d8 f8bd 3833 e5bd f80c 03be
000002c0: a024 b63b 7308 103c 694c 0bbd a7a4 f6bc
000002d0: 7a4b b43d 8adc b03d 50f4 933d a328 fbbc
000002e0: cf74 8f3e af0d 693d 0181 aabe ede6 8bbb
000002f0: 21db 163d 311c 87bd 21dd a03d ddc0 15be
00000300: 69b3 28bd 8250 613c ae55 733d 6113 863d
00000310: d847 6b3e eba3 83bd a3d9 443d 985c 39be
00000320: d7bc 763d ecce d63d 5325 43bd c211 fa3d
00000330: 7aa6 da3c e883 98bd 5693 b73d 8dd6 32bd
00000340: 41b5 72b9 b558 2d9b b781 0e39 8d94 28b6
00000350: 8193 1ebc 972d 123d 13cd 13bd f901 a03d
00000360: 958c 193b 2914 e93d 569e 0fbe f849 453d
00000370: f3e0 3e3c 0691 423e d2ce 303e 8123 01be
00000380: 435a 0e3e 917b 353e 7546 68bc 25fb 8dbc
00000390: 2306 6fbe bb95 0080 436c cd3e 5049 3b3e
000003a0: d964 c03d 29af 073e 03ef 243e 76ce 6ebd
000003b0: a2b1 e1bc f13d b03a 8d55 0ebc 37c0 a4ba
000003c0: b38e 2d3e e92e ff3c 4ae7 e73d d84d 83be
000003d0: 260f 263e 675b a0bd c80e b93c 198a 60be
000003e0: 7791 653e aee9 23bd c883 f0be 0305 29be
000003f0: 3db2 c006 3146 f7a0 3f20 260a d5ec 2333

convs.0.convs.<author___rev_IsMappedTo___pi>.lin_l.bias f4 [64]
0.026914172 -0.14785773 -0.09118408 -6.0945428e-21 0.17495601 -1.9606202e-21 -0.32198927 0.041170403
-0.096277714 0.049676254 0.06404719 0.20695804 0.058226872 0.09324363 -0.0023447399 -0.43791026
-0.2831793 -0.013319964 0.058065675 -0.00019962732 0.39207494 -1.4157142e-14 -0.0034571977 -1.2198976e-27
-0.0016142033 0.14894624 -0.27813932 -0.5035563 -0.02689174 -0.36603776 -1.1843039e-07 -0.15679088
-1.9857447e-18 -2.4985514e-08 0.013842995 0.018960794 -0.04842675 -0.0025427213 0.015684176 -0.043247133
-0.15595445 -1.515441e-27 -0.09172743 -0.29041123 -0.041804798 -0.30655575 -0.14046192 -0.128082
0.06710791 -0.3300176 -0.20334098 -0.1501275 -7.3821895e-05 0.006648177 0.084575675 -0.15849897
-0.27810013 0.25274226 -0.38148236 -0.0029933264 -0.18552744 -0.081727125 0.0544164 -2.0857128e-07
00000000: 1c7b dc3c 0468 17be b8be babd cd3e e69d
00000010: ab27 333e e923 149d c7db a4be 4ca2 283d
00000020: 402d c5bd 5479 4b3d 2c2b 833d cfec 533e
00000030: 4d7f 6e3d 84f6 be3d 35aa 19bb c635 e0be
00000040: e1fc 90be fa3b 5abc 46d6 6d3d 0d53 51b9
00000050: 0cbe c83e 4b08 7fa8 2792 62bb ed4c c192
00000060: ad93 d3ba 5d85 183e 4768 8ebe 11e9 00bf
00000070: 114c dcbc 4d69 bbbe cc53 feb3 ca8d 20be
00000080: a885 12a2 ba9f d6b2 bbcd 623c ab53 9b3c
00000090: 215b 46bd c9a3 26bb 1a7c 803c e823 31bd
000000a0: 86b2 1fbe 9721 f092 97db bbbd c8b0 94be
000000b0: 823b 2bbd e0f4 9cbe 40d5 0fbe ee27 03be
000000c0: df6f 893d 11f8 a8be 9e38 50be 06bb 19be
000000d0: d4d0 9ab8 f3d8 d93b 0336 ad3d 8e4d 22be
000000e0: 2463 8ebe 6f67 813e a851 c3be af2b 44bb
000000f0: e8fa 3dbe 8d60 a7bd bbe3 5e3d a3f3 5fb4

convs.0.convs.<author___rev_IsMappedTo___pi>.lin_r.weight f4 [64, 10]
0.004623469 0.007984542 0.007423384 0.004262794 -0.00919331 0.012970558 0.0035810594 0.004662647
0.004283055 0.0033076117 -0.10670938 0.03897506 -0.014512512 0.065060124 0.05355368 -0.0660208
-0.10523939 -0.047653556 -0.08076404 0.035805114 -0.020128857 0.0454982 0.0007094443 -0.035556354
0.05214161 -0.04783524 -0.047133077 -0.03559633 0.00487416 -0.0027732947 3.6068e-41 -4.9343e-41
-4.9205e-41 4.9952e-41 4.995e-41 -4.9672e-41 1.2243e-41 -4.9114e-41 -4.9378e-41 -4.95e-41
-0.070287555 -0.0030140372 -0.008160148 0.03015063 -0.0028183148 0.008228696 -0.011655 0.006663635
-0.021074831 0.00056749076 -1.760418e-21 -1.4810094e-22 -6.464701e-23 -7.9497535e-22 -2.8950337e-23 -1.9382601e-22
5.875796e-22 2.0556692e-22 5.1448493e-22 1.4190162e-23 -0.18108983 0.08991067 0.0032675448 -0.033528898
0.024034068 -0.076552615 -0.088722296 -0.058673114 0.003673323 0.040167645 0.003915227 0.0031221726
0.003977658 -0.0033307432 -0.011620201 0.008803146 -0.0009733622 -0.002217924 0.0033142786 0.0017356605
-0.16913633 0.0046308963 -0.018558374 0.00035330837 0.031340957 -0.061400685 -0.06789958 -0.04584611
-0.022812422 0.025813352 0.025018873 0.00663775 0.0058877035 -0.0063070413 0.0023453787 0.021020783
0.023736866 0.018616457 0.021050563 -0.005213684 0.16962856 -0.0679205 -0.0168397 -0.00035344606
0.06929368 0.09977992 0.16366531 0.14025766 0.09472125 -0.09001086 0.036125768 0.010936744
0.004566028 -0.012517879 0.012576533 0.047694318 0.042076066 0.019668154 0.019937472 -0.013565778
-0.13589974 0.04659542 -0.047897447 -0.03291586 0.014257153 -0.040799197 -0.039991647 -0.03362186
0.011107313 0.024180572 0.038491625 -0.03545167 -0.012799007 -0.014389512 -0.023671117 0.0038699936
-0.0004419221 -0.01565895 -0.0058667012 -0.00063008734 -0.035785757 -0.099058524 -0.025109177 0.006143498
0.031389367 0.021105684 0.037970178 0.037533417 0.005613358 -0.0215759 -0.11805441 0.06116845
-0.008959955 -0.033882126 0.03779997 -0.09843783 -0.06344181 -0.023842752 -0.015083413 0.018124074
0.03307326 -0.0050486573 0.007131677 -0.027590718 -0.014334464 -0.008543564 -0.031563208 -0.030330487
0.010863641 0.009561636 -0.00795367 0.0019043233 0.0004756872 -0.000743717 -0.0004112649 -0.0008456081
-0.006363534 1.7969982e-05 -0.0026058066 -0.00019514025 0.019760707 -0.01619175 0.007854827 -0.029345341
0.0215804 0.04580816 0.0637247 0.023543924 0.02690386 -0.033000164 -4.4025834e-05 -3.299708e-05
-1.8106848e-05 2.7578199e-05 6.0331327e-05 -9.926718e-06 -8.53712e-05 9.199228e-06 -4.561722e-05 1.0599246e-06
0.11110718 -0.037384305 0.0064271 0.075799726 0.0057867835 0.14543295 0.09728501 0.07434384
-0.003644086 -0.06232448 -1.1033167e-24 4.9763e-41 4.9586e-41 -4.9634e-41 4.9066e-41 -1.1002e-41
4.9572e-41 4.9574e-41 -4.9324e-41 -4.9696e-41 0.012782696 -0.032556437 -0.021583473 -0.02621019
0.005898906 0.038190015 0.05283533 0.020046655 0.020610537 -0.023036906 8.240072e-28 -7.0365837e-29
-1.4627159e-28 2.1299774e-28 -3.1503856e-28 3.6706848e-28 -2.834968e-28 3.1709808e-29 -1.4429311e-28 -7.437891e-29
-0.0018959765 0.0009284661 0.00054694276 0.00017990012 0.00014885717 -0.00082078483 -0.0005890429 -9.890899e-05
-0.00061806093 3.734859e-05 0.051034514 -0.06420351 0.0052237753 0.111553706 0.043871127 0.17209099
00000000: 7880 973b 99d1 023c dc3f f33b e8ae 8b3b
00000010: 899f 16bc 7782 543c 35b0 6a3b 1ec9 983b
00000020: df58 8c3b 84c4 583b 738a dabd 50a4 1f3d
00000030: e3c5 6dbc 3e3e 853d 1b5b 5b3d ea35 87bd
00000040: c087 d7bd 6030 43bd 9e67 a5bd 62a8 123d
00000050: 46e5 a4bc 525c 3a3d 00fa 393a 8aa3 11bd
00000060: 7192 553d e2ee 43bd 9d0e 41bd 75cd 11bd
00000070: 6bb7 9f3b 2ac0 35bb 8b64 0000 8c89 0080
00000080: 2a89 0080 3f8b 0000 3e8b 0000 778a 0080
00000090: 2122 0000 e988 0080 a589 0080 fc89 0080
000000a0: ecf2 8fbd 2787 45bb 24b2 05bc 74fe f63c
000000b0: 7ab3 38bb a7d1 063c 9df4 3ebc 9f5a da3b
000000c0: 20a5 acbc a9c3 143a 7003 059d 050b 339b
000000d0: 904e 9c9a 3d44 709c c8fe 0b9a 3f52 6a9b
000000e0: c595 311c e183 781b 587e 1b1c 243d 8919
000000f0: 9d6f 39be 1623 b83d 4e24 563b 9955 09bd
00000100: 18e3 c43c 9ec7 9cbd 09b4 b5bd 3853 70bd
00000110: 22bc 703b d486 243d 4e4b 803b 5d9d 4c3b
00000120: 0457 823b 9948 5abb a862 3ebc 123b 103c
00000130: 3b29 7fba 975a 11bb 5e34 593b 1a7f e33a
00000140: 1332 2dbe c6be 973b bb07 98bc 3f3c b939
00000150: 605f 003d 497f 7bbd ef0e 8bbd 21c9 3bbd
00000160: 1ee1 babc 8676 d33c 61f4 cc3c 7c81 d93b
00000170: a3ed c03b 4cab cebb edb4 193b c733 ac3c
00000180: d173 c23c 8a81 983c 3b72 ac3c 8dd7 aabb
00000190: 1cb3 2d3e e719 8bbd 69f3 89bc ba4e b9b9
000001a0: d8e9 8d3d 6a59 cc3d e197 273e b49f 0f3e
000001b0: 37fd c13d 9d57 b8bd 9df8 133d 0730 333c
000001c0: 9e9e 953b ca17 4dbc cd0d 4e3c 1e5b 433d
000001d0: f457 2c3d 1c1f a13c e953 a33c ff42 5ebc
000001e0: 4d29 0bbe d7da 3e3d 1d30 44bd c8d2 06bd
000001f0: d596 693c 0f1d 27bd 48ce 23bd 13b7 09bd
00000200: 73fb 353c 5616 c63c 65a9 1d3d c535 11bd
00000210: edb2 51bc fdc1 6bbc eee9 c1bc b89f 7d3b
00000220: c8b1 e7b9 3347 80bc 753d c0bb 722c 25ba
00000230: 1694 12bd 32df cabd c3b1 cdbc 654f c93b
00000240: 2392 003d d4e5 ac3c 9e86 1b3d a4bc 193d
00000250: 43f0 b73b f1bf b0bc 83c6 f1bd c58b 7a3d
00000260: c6cc 12bc fcc7 0abd 24d4 1a3d c699 c9bd
00000270: c8ed 81bd e051 c3bc 6b20 77bc f078 943c
00000280: d477 073d 356f a5bb d8b0 e93b ee05 e2bc
00000290: 1adb 6abc 4efa 0bbc 6c48 01bd a477 f8bc
000002a0: 6afd 313c 68a8 1c3c 1c50 02bc 7d9a f93a
000002b0: a865 f939 01f6 42ba 0a9f d7b9 cdab 5dba
000002c0: 3185 d0bb 3ebe 9637 2ec6 2abb 909e 4cb9
000002d0: 35e1 a13c 90a4 84bc 88b1 003c a465 f0bc
000002e0: 61c9 b03c 56a1 3b3d 1882 823d 30df c03c
000002f0: 7c65 dc3c 2e2b 07bd 61a8 38b8 5866 0ab8
00000300: 29e4 97b7 bb57 e737 450c 7d38 ee8a 26b7
00000310: 5009 b3b8 6256 1a37 1e55 3fb8 bb42 8e35
00000320: 298c e33d 4920 19bd 6c9a d23b e33c 9b3d
00000330: 0f9f bd3b 60ec 143e 5d3d c73d 9541 983d
00000340: 9ed1 6ebb f447 7fbd e1ba aa97 b88a 0000
00000350: 3a8a 0000 5c8a 0080 c788 0000 ab1e 0080
00000360: 308a 0000 318a 0000 7f89 0080 888a 0080
00000370: 836e 513c e659 05bd d3cf b0bc c1b6 d6bc
00000380: 9c4b c13b 226d 1c3d dc69 583d e238 a43c
00000390: 6ed7 a83c e5b7 bcbc b491 8212 0a66 b290
000003a0: d86b 3991 dc00 8711 eead c791 44a8 e811
000003b0: fcaf b391 afc9 2010 cbe9 3691 ac92 bc90
000003c0: 6a82 f8ba 4e64 733a b560 0f3a 92a3 3c39
000003d0: 8b16 1c39 f029 57ba 006a 1aba 5c6d cfb8
000003e0: 5e05 22ba bea6 1c38 9109 513d 217d 83bd
000003f0: 342c ab3b 4576 e43d 36b2 333d 9f38 303e

convs.0.convs.<author___writes___pub>.lin_l.weight f4 [64, 4]
-0.112158425 0.033496886 -0.019009052 0.06669949 0.3741746 -0.07296807 -0.38045642 -0.1035417
0.5030182 -0.0431794 0.4781808 0.37130514 0.27573308 0.24145032 0.009774926 -0.2570476
0.4042017 0.062357064 0.13098198 -0.084864154 -0.062250312 -0.060630485 0.35785347 0.30916992
-2.04534e-21 -1.0551057e-14 -2.1303987e-28 -2.209685e-39 0.2748708 0.027850166 0.19375366 -0.036125783
-0.06455233 0.04968587 0.06597682 0.053159803 -4.1982044e-06 -5.750379e-06 -4.3206e-13 2.339148e-08
0.41556785 0.10852522 -0.16592106 0.08189092 -0.007348268 0.027817594 -0.07168069 0.008152782
0.11724968 0.013146034 -0.28884947 -0.09413829 -0.041820455 0.03791745 -0.009160273 -0.0012252501
-0.02304783 0.06385691 -0.0013389465 -0.00085798843 0.22785181 0.15047707 0.39946952 -0.003125096
-0.05760343 0.06254186 0.10533762 0.008190346 5.4547e-41 5.0024e-41 -6.0054e-41 -4.9352e-41
0.31902882 -0.07712371 0.01834084 0.107928246 0.41243094 -0.113300934 0.22436178 -0.015456925
-0.00034445364 -3.8999747e-06 2.3984833e-07 -5.786698e-10 0.06754065 -0.08143352 0.18028457 0.041646544
0.26756176 0.20919491 0.3171559 -0.020190954 -0.1754592 -0.009592387 0.46564406 0.10609683
0.13530304 -0.20070113 0.43696404 0.33957353 -0.04776427 0.0023756581 0.2595838 -0.01258962
-0.0002066617 -0.00013930432 -9.592193e-08 -1.4521581e-12 2.32365e-40 4.948924e-27 5.0123e-41 -5.4195e-41
0.22632381 -0.02188354 0.38990235 0.19035159 -0.009964047 0.0026969893 -0.0064009465 -0.0022686087
0.38237247 0.26994 -0.23823859 -0.3197475 -0.020467754 0.018033454 0.23918203 0.36194852
0.12109891 -0.027365282 -0.3115217 -0.21807288 -0.048575107 -0.045735545 0.27614963 0.1923451
0.056296363 0.034790512 -0.18168788 -0.02332518 -0.084358044 -0.012076958 0.0820603 0.03997292
0.16045769 -0.035054415 -0.13384156 -0.1228518 0.4158181 0.11822458 0.47432327 0.072250836
-0.024106255 0.0479139 0.157175 0.3090234 -0.045053877 0.016668431 0.044673517 -0.00043779775
0.12035999 0.16452919 0.005123706 -0.1923661 0.18962635 0.048958723 0.59328586 0.1292203
-0.03411756 0.008767804 -0.00923416 0.017359767 -2.7694192e-05 2.5080193e-38 -1.15306e-06 5.3649716e-24
0.15394804 -0.01921694 -0.3703877 -0.3503303 0.057911932 0.14480242 -0.18220136 -0.027769214
-0.10698602 0.080644935 0.39399934 0.06887757 -0.04537807 -0.027986374 0.3035873 0.118292026
-0.00059135363 4.289369e-05 -7.385769e-07 -3.876956e-11 -0.10770511 0.05653797 0.013823449 0.06331423
0.3240539 0.14623684 0.2094876 0.07672148 -0.072830506 0.04026314 0.0038666443 0.052812107
0.2642292 -0.05252211 -0.44217607 -0.20704739 -0.0029222833 0.0004973747 -3.970691e-05 1.2839357e-07
-0.057758495 0.054918453 -0.009709395 0.05296071 -0.23399042 0.18813863 0.5102358 0.11490067
0.3192157 0.0150585575 0.04845802 -0.09344705 0.08664104 0.1861336 -0.24792999 0.0056393174
-8.145858e-05 1.3973686e-06 -1.759538e-07 -4.5625247e-14 -0.08071217 0.16814733 0.14118108 0.09016395
-0.06753763 -0.040271394 0.2744361 0.08893045 -0.18843928 0.2179591 0.19562265 0.03524438
0.49170417 0.20504679 0.037666902 0.054896016 -0.050561786 -0.027629215 0.35509056 0.22498964
00000000: 51b3 e5bd 0834 093d dfb8 9bbc be99 883d
00000010: d093 bf3e 4970 95bd 2fcb c2be ac0d d4bd
00000020: cdc5 003f e2dc 30bd 1dd4 f43e b51b be3e
00000030: e32c 8d3e c13e 773e 0327 203c be9b 83be
00000040: 86f3 ce3e 1f6a 7f3d 2420 063e 42cd adbd
00000050: 2ffa 7ebd ac57 78bd 9238 b73e 854b 9e3e
00000060: a18a 1a9d 2912 3ea8 b207 8791 b40f 1880
00000070: debb 8c3e 0826 e43c 5c67 463e a1f8 13bd
00000080: 0334 84bd 6983 4b3d db1e 873d 18be 593d
00000090: 4dde 8cb6 61f3 c0b6 683a f3aa 69ee c832
000000a0: 4fc5 d43e 7842 de3d 36e7 29be 6db6 a73d
000000b0: bdc9 f0bb b9e1 e33c 53cd 92bd 3f93 053c
000000c0: 9a20 f03d 7762 573c 14e4 93be 93cb c0bd
000000d0: ed4b 2bbd 544f 1b3d f814 16bc 9298 a0ba
000000e0: cece bcbc 69c7 823d 977f afba a1ea 60ba
000000f0: fc51 693e a916 1a3e 4587 cc3e 69ce 4cbb
00000100: 93f1 6bbd f215 803d 40bb d73d cd30 063c
00000110: 0e98 0000 728b 0000 68a7 0080 9389 0080
00000120: bf57 a33e 09f3 9dbd 873f 963c 7c09 dd3d
00000130: 262a d33e 520a e8bd 18bf 653e 0b3f 7dbc
00000140: c997 b4b9 87dc 82b6 81c4 8034 4410 1fb0
00000150: c152 8a3d 9ec6 a6bd 859c 383e 9195 2a3d
00000160: dbfd 883e 3137 563e 4262 a23e 8067 a5bc
00000170: 94ab 33be 6329 1dbc e668 ee3e 4b49 d93d
00000180: e18c 0a3e 9984 4dbe c0b9 df3e 95dc ad3e
00000190: 78a4 43bd eeb0 1b3b 2be8 843e b244 4ebc
000001a0: 54b3 58b9 3812 12b9 a4fd cdb3 825f ccab
000001b0: bd87 0200 0d0c c413 b98b 0000 1397 0080
000001c0: 6ec1 673e 1c45 b3bc 48a1 c73e 87eb 423e
000001d0: 3e40 23bc f9bf 303b 08bf d1bb f0ac 14bb
000001e0: 53c6 c33e 9335 8a3e d1f4 73be f2b5 a3be
000001f0: feab a7bc e5ba 933c 22ec 743e 5151 b93e
00000200: b502 f83d 282d e0bc c67f 9fbe 7f4e 5fbe
00000210: b1f6 46bd 3255 3bbd 7c63 8d3e 1df6 443e
00000220: 0497 663d 7f80 0e3d 630c 3abe 7314 bfbc
00000230: e9c3 acbd 6fde 45bc 3b0f a83d a5ba 233d
00000240: 054f 243e 3895 0fbd c30d 09be b999 fbbd
00000250: 1ce6 d43e bb1f f23d 80da f23e 3ff8 933d
00000260: 7b7a c5bc 5e41 443d 7cf2 203e 5138 9e3e
00000270: 6a8a 38bd 3c8c 883c 94fb 363d 3888 e5b9
00000280: 4c7f f63d 577a 283e c3e4 a73b 9efb 44be
00000290: 692d 423e f188 483d 95e1 173f 5452 043e
000002a0: dbbe 0bbd d6a6 0f3c e04a 17bc 1236 8e3c
000002b0: d350 e8b7 b08c 0801 d7c2 9ab5 1b8c cf18
000002c0: 8ea4 1d3e d86c 9dbc 75a3 bdbe 7e5e b3be
000002d0: 1035 6d3d 1647 143e fe92 3abe 437c e3bc
000002e0: 7d1b dbbd 2c29 a53d 48ba c93e af0f 8d3d
000002f0: 5bde 39bd ae43 e5bc cb6f 9b3e 1743 f23d
00000300: 1205 1bba c0e8 3338 9e42 46b5 a582 2aae
00000310: 7f94 dcbd 5c94 673d bf7b 623c e4aa 813d
00000320: 65ea a53e 1cbf 153e eb83 563e 2720 9d3d
00000330: 2928 95bd f6ea 243d 8767 7d3b 8251 583d
00000340: 0d49 873e 6d21 57bd e764 e2be 3b04 54be
00000350: c783 3fbb 4062 023a f88a 26b8 8edc 0934
00000360: 2c94 6cbd 2cf2 603d 2714 1fbc 54ed 583d
00000370: 2f9b 6fbe 6aa7 403e d09e 023f 0b51 eb3d
00000380: 3d70 a33e 2bb8 763c eb7b 463d 2b61 bfbd
00000390: dc70 b13d ce99 3e3e 5ce1 7dbe 06ca b83b
000003a0: bed4 aab8 388d bb35 d0ed 3cb4 547a 4da9
000003b0: 6c4c a5bd d02e 2c3e c691 103e e1a7 b83d
000003c0: 2b51 8abd 9ef3 24bd e382 8c3e 2b21 b63d
000003d0: 3af6 40be ac30 5f3e 4e51 483e 695c 103d
000003e0: a6c0 fb3e c9f7 513e 9c48 1a3d a5da 603d
000003f0: e019 4fbd aa56 e2bc 6ece b53e af63 663e

convs.0.convs.<author___writes___pub>.lin_l.bias f4 [64]
0.14993829 -0.34437546 0.2469623 -0.4565769 -0.04463228 0.059889764 -1.2209698e-23 -0.029885758
0.16956724 -1.2046675e-07 0.22747067 0.09292657 -0.2285346 0.005149814 -0.0043325396 0.10376423
0.0706859 -4.516527e-19 -0.19274403 0.085116886 -1.0517473e-06 0.11481213 -0.054159556 0.27840695
0.38085634 -0.19866978 -8.796335e-10 -4.055576e-17 -0.1183526 -0.0023110532 -0.44100818 0.17534716
-0.17795171 0.23761855 -0.08439182 0.18110192 0.17321886 0.06437698 0.18653867 -0.009510532
-0.192734 0.23710988 0.00095574086 -1.0874074e-09 0.11727489 -0.14910564 -0.03863438 -0.037326958
-4.1558792e-08 0.23858131 0.4147313 0.07959343 0.3298395 -4.812088e-06 0.008971043 0.47696668
0.1709264 -0.21934621 -2.5693173e-11 0.22952992 0.370345 0.39759752 0.17319135 -0.17791694
00000000: 6c89 193e fb51 b0be afe3 7c3e 73c4 e9be
00000010: 56d0 36bd f84e 753d 7f2b 6c99 fad2 f4bc
00000020: 09a3 2d3e a659 01b4 12ee 683e 4950 be3d
00000030: f904 6abe c5bf a83b faf7 8dbb 5782 d43d
00000040: c5c3 903d ea4d 05a1 b15e 45be c351 ae3d
00000050: c329 8db5 9f22 eb3d 69d6 5dbd 5b8b 8e3e
00000060: 9aff c23e 1770 4bbe b4ca 71b0 ca07 3ba4
00000070: d962 f2bd 0a75 17bb d3cb e1be 358e 333e
00000080: f938 36be 4752 733e 9ed5 acbd c872 393e
00000090: 4960 313e 14d8 833d fe03 3f3e 10d2 1bbc
000000a0: 105c 45be efcc 723e af8a 7a3a bf73 95b0
000000b0: d12d f03d 26af 18be 153f 1ebd 27e4 18bd
000000c0: 607e 32b3 a94e 743e a957 d43e e101 a33d
000000d0: b9e0 a83e 8577 a1b6 48fb 123c fa34 f43e
000000e0: 5507 2f3e 4b9c 60be e2ff e1ad e409 6b3e
000000f0: dc9d bd3e e791 cb3e 1359 313e dc2f 36be

convs.0.convs.<author___writes___pub>.lin_r.weight f4 [64, 10]
0.07606173 -0.021633241 0.08140839 0.029278966 -0.008930736 -0.024264703 0.0052961814 -0.05670313
0.020660173 -0.026685381 -0.03404941 0.017557878 0.039512828 0.016852666 -0.02666065 -0.031654336
-0.010314744 -0.006927499 -0.0065936157 0.014842994 0.13948075 0.028158136 -0.055582915 0.03128758
0.021466332 0.016115082 0.019605348 0.011122929 -0.01834607 0.03590673 -0.03052928 -0.032267712
0.048969995 -0.0019141996 -0.03581182 -0.08135848 -0.035616145 -0.031844597 0.010242186 0.014666953
0.10195046 0.04134814 0.03661917 0.03211429 -0.023274668 -0.028167771 0.02061278 0.032021042
0.037213586 0.031223893 -0.027316147 0.072902806 -0.06255109 0.029165406 0.0674338 0.046051398
0.05883685 0.0354253 -0.041167587 0.0039538965 4.9473e-41 -5.0665e-41 -4.9331e-41 4.9578e-41
2.451715e-38 5.0129e-41 -5.0259e-41 -4.943e-41 -6.1059e-41 6.1858e-41 0.09060016 0.061381843
-9.858467e-05 0.014766047 0.0047470788 -0.04586994 -0.0015645243 -0.015658284 0.033990145 -0.023832982
0.09545609 -0.013571796 0.04699049 0.023293896 -0.031554826 -0.017253194 0.01837182 -0.0063295057
0.030889172 0.008956222 -2.0004778e-08 2.8911279e-08 -8.578644e-09 -3.0325353e-08 2.1035477e-08 -3.5161427e-09
-2.3517746e-08 -1.8891825e-08 2.2819242e-08 2.0638083e-08 0.19263704 -0.02118766 0.07047627 0.005194369
0.007379474 -0.09164915 -0.02855615 -0.05282085 0.03443862 0.002949919 0.010610771 0.0009517558
-0.004194966 0.0048331204 0.0033605 0.0031232706 -8.374843e-05 -0.0012137346 -0.0013801219 8.0383455e-05
-0.034155443 0.021398135 0.0025519766 0.00541709 0.0061698775 -0.017484108 -0.00064728514 0.0018508392
0.010210696 -0.009272072 -0.0038474316 -0.0014662857 0.00018853959 -0.00056135224 0.0006808548 3.144483e-05
-0.0011857322 0.0038123706 0.001434325 -0.0053730435 -0.002092133 0.001424411 -0.0004989668 -0.0001898317
6.228873e-05 -0.00011989134 -0.0010186291 -0.0013567468 -0.0008606569 -0.0019233853 0.07649585 0.056425814
0.025376357 0.06111272 -0.020874664 -0.02889792 0.024456117 -0.013036191 0.013240529 0.020038707
0.06088233 0.01854681 0.041027423 0.019028988 -0.02379124 -0.029303823 0.03002459 0.008292514
0.025253857 0.047216725 -5.0026e-41 -4.9624e-41 -4.9672e-41 4.9176e-41 4.9469e-41 -4.9787e-41
4.9762e-41 4.9233e-41 -4.9801e-41 -4.9565e-41 0.09090882 0.03799986 0.072917655 0.040875997
-0.039257217 -0.058588825 -0.010179611 -0.03646294 0.0347332 -0.0011369765 0.09172834 0.021280684
0.04213804 0.02356536 -0.01731614 -0.021484025 0.00024168557 -0.006684118 0.046101242 0.012830665
-1.4808234e-12 -4.315015e-13 9.752919e-14 -1.2971735e-13 -1.2933121e-14 4.552643e-15 -1.1812583e-13 1.2082813e-13
-2.760978e-13 -9.643124e-13 0.053127088 0.068768844 -0.021269614 0.045951102 0.03720807 -0.007858596
0.027218912 -0.018514328 0.030026019 0.013418783 0.07464857 0.032784563 0.031862766 0.045465175
-0.0056858477 0.00087731576 0.023623124 0.003318641 0.04761914 0.039294884 0.1688685 0.02461315
0.06846724 0.03869518 -0.07210076 -0.029601345 0.054001324 -0.0167363 0.068759665 0.055561733
0.09105681 0.035969757 -0.0052618636 0.003239421 -0.0067896512 0.056207594 0.079850435 0.066175275
0.031126864 0.048293315 -0.010882239 0.023137812 0.011474217 0.0015503144 -0.0030956704 0.012355976
00000000: 41c6 9b3d 3238 b1bc 71b9 a63d 71da ef3c
00000010: 3952 12bc c5c6 c6bc 978b ad3b 8b41 68bd
00000020: 863f a93c 4d9b dabc 6577 0bbd 8ad5 8f3c
00000030: 34d8 213d 9a0e 8a3c 6f67 dabc faa7 01bd
00000040: 2cff 28bc 1300 e3bb 420f d8bb 0730 733c
00000050: 0bd4 0e3e e4ab e63c e9aa 63bd 6827 003d
00000060: 29da af3c c703 843c 659b a03c f23c 363c
00000070: 7f4a 96bc ef12 133d 8a18 fabc 262b 04bd
00000080: c394 483d e1e5 faba 6aaf 12bd 469f a6bd
00000090: 3ce2 11bd 7b6f 02bd d7ce 273c a94d 703c
000000a0: 67cb d03d ab5c 293d fcfd 153d 468a 033d
000000b0: 84aa bebc 19c0 e6bc 22dc a83c 7f28 033d
000000c0: 466d 183d 40c9 ff3c 1dc6 dfbc 114e 953d
000000d0: c91a 80bd 4aec ee3c bb1a 8a3d 64a0 3c3d
000000e0: e9fe 703d 1f1a 113d 589f 28bd b08f 813b
000000f0: e989 0000 3c8d 0080 8489 0080 348a 0000
00000100: eb7b 0501 bd8b 0000 1a8c 0080 ca89 0080
00000110: 35aa 0080 6fac 0000 948c b93d 876b 7b3d
00000120: 3ebf ceb8 4aed 713c 628d 9b3b 1ee2 3bbd
00000130: b910 cdba cd45 80bc 4039 0b3d 633d c3bc
00000140: 7c7e c33d 3d5c 5ebc 1a79 403d d7d2 be3c
00000150: a23f 01bd 9256 8dbc 8080 963c be67 cfbb
00000160: 4a0b fd3c 1ebd 123c f9d6 abb2 9358 f832
00000170: 4661 13b2 143f 02b3 81b1 b432 a3a0 71b1
00000180: 1204 cab2 9047 a2b2 0b04 c432 a047 b132
00000190: a542 453e be91 adbc dd55 903d 8635 aa3b
000001a0: 84cf f13b 8db2 bbbd 96ee e9bc ad5a 58bd
000001b0: 830f 0d3d 6e53 413b cdd8 2d3c 407f 793a
000001c0: ed75 89bb 275f 9e3b d63b 5c3b c9af 4c3b
000001d0: 19a2 afb8 2d16 9fba 35e5 b4ba 8a93 a838
000001e0: 94e6 0bbd 244b af3c 103f 273b d881 b13b
000001f0: af2c ca3b d53a 8fbc 92ae 29ba dc97 f23a
00000200: c34a 273c e4e9 17bc 3125 7cbb 6230 c0ba
00000210: b6b2 4539 b627 13ba 647b 323a a1e3 0338
00000220: 926a 9bba f7d8 793b f6ff bb3a 5b10 b0bb
00000230: 2b1c 09bb 4db3 ba3a 18cd 02ba 8f0d 47b9
00000240: 02a1 8238 2c6e fbb8 8583 85ba ded4 b1ba
00000250: b59d 61ba 1a1a fcba dba9 9c3d c11e 673d
00000260: 14e2 cf3c 5551 7a3d 5801 abbc 55bb ecbc
00000270: 3258 c83c c095 55bc ceee 583c 3728 a43c
00000280: c05f 793d 7bef 973c 5f0c 283d aee2 9b3c
00000290: d9e5 c2bc 920e f0bc 21f6 f53c 53dd 073c
000002a0: 2de1 ce3c 5366 413d 748b 0080 558a 0080
000002b0: 778a 0080 1589 0000 e689 0000 c98a 0080
000002c0: b78a 0000 3e89 0000 d38a 0080 2b8a 0080
000002d0: 672e ba3d bea5 1b3d da55 953d 976d 273d
000002e0: 2dcc 20bd d6fa 6fbd 62c8 26bc 2a5a 15bd
000002f0: 6644 0e3d 9a06 95ba 11dc bb3d d454 ae3c
00000300: f098 2c3d 240c c13c 94da 8dbc 44ff afbc
00000310: fa6c 7d39 7206 dbbb a8d4 3c3d b637 523c
00000320: 4968 d0ab ebe9 f2aa c09d db29 7b0c 12aa
00000330: 7efb 68a8 b806 a427 74ff 04aa 560a 082a
00000340: e36d 9baa 04b7 87ab ca9b 593d aed6 8c3d
00000350: 9d3d aebc 3937 3c3d 7d67 183d 57c1 00bc
00000360: 32fa de3c 5cab 97bc 20f9 f53c 75da 5b3c
00000370: 59e1 983d 1b49 063d 8882 023d b139 3a3d
00000380: 5950 babb aafb 653a 4885 c13c 8f7d 593b
00000390: 4a0c 433d acf3 203d ddeb 2c3e 84a1 c93c
000003a0: 8d38 8c3d d67e 1e3d 90a9 93bd 857e f2bc
000003b0: 7e30 5d3d 911a 89bc ded1 8c3d b394 633d
000003c0: fe7b ba3d 0655 133d b66b acbb 774c 543b
000003d0: b97b debb ef39 663d a088 a33d e786 873d
000003e0: c4fd fe3c 36cf 453d 6b4b 32bc 828b bd3c
000003f0: 5bfe 3b3c eb33 cb3a bbe0 4abb b870 4a3c

convs.0.convs.<pub___rev_writes___author>.lin_l.weight f4 [64, 10]
-0.07951482 -0.00017223367 -0.0011774269 -0.02340288 0.014346007 0.0044220183 -0.0013365528 -0.021771168
0.01654646 -0.019100823 -0.118019864 0.0091825565 0.0021615436 -0.008637736 -0.002177468 -0.004721846
-0.012082703 -0.039157413 0.018250862 -0.06567478 -0.004521497 -0.005536763 0.0015852212 0.0006116457
0.0018794689 -0.0008519203 0.00036418464 0.0002879674 0.0002238641 0.00037596127 0.007898773 0.001210782
0.0035341803 -0.01046254 -0.018697692 0.008108712 0.001169398 0.011562615 0.011073302 0.027706256
-0.05740133 0.04148783 -0.06741461 0.016609246 0.0968001 0.037515614 0.0055323727 0.053829305
-0.106128156 0.04101682 -0.022936866 0.023343697 -0.01902316 -0.0057368358 0.0021996966 0.013743129
0.00057780475 0.004062494 -0.0076709767 0.007848613 0.041097697 0.021845669 -0.008366004 -0.008900472
0.001998145 0.0024065715 -0.010255621 0.0053399666 0.008719254 0.0034642487 8.976464e-22 2.712004e-22
-1.0351759e-22 3.3996366e-22 2.5459386e-22 5.479408e-22 7.460369e-22 1.0383849e-21 1.943984e-23 1.0698834e-21
0.024049459 0.048980284 -0.09516547 -0.007982259 0.07563342 0.053212963 -0.019252907 -0.0005174589
-0.08417486 -0.046276737 -0.092360176 0.0018545036 0.025151687 -0.036772873 0.010341078 0.012437293
-0.008246907 -0.057817515 0.06290372 -0.056152407 -0.028685601 0.10437904 -0.08137785 -0.03576539
0.07547098 0.064285316 0.010855481 0.058395106 -0.02413733 0.0057810172 -0.07281086 0.041827746
-0.034823235 -0.012713011 0.039634243 0.0004091465 0.007984423 0.012564867 -0.04400957 0.006504805
-0.036237884 0.026861226 -0.020950494 0.0024376574 0.03268289 0.035367917 0.0012063287 0.0023468402
0.0013007333 0.012153755 -0.092691526 0.043430947 -0.03358735 -0.0023952255 0.054857213 0.027622163
0.006588446 0.040704224 -0.08194833 0.026199706 -0.11668038 0.014610864 -0.008449258 -0.022657469
0.017446196 0.0070259473 -0.026763594 -0.051251903 0.037405044 -0.07220043 -0.024492726 -0.005533663
0.005486056 -0.04034876 0.005370931 -0.028760854 -0.027035054 -0.066818364 0.01874061 -0.033148285
0.0033808087 0.0938459 -0.07963201 -0.010360043 0.117527775 0.019934222 0.0037903355 0.0043737874
-0.08649868 -0.058897093 -0.15349568 0.041106112 -0.040892202 -0.006299377 0.039089803 0.01845134
0.009580963 0.012763407 -0.04604779 -0.03475296 -0.059581712 0.09532494 -0.089504234 0.0007350934
0.06864686 0.024730466 0.017858649 0.023970664 -0.05822304 -0.053184584 -0.031811915 -0.02016323
0.0011897389 -0.014122679 -0.0127563765 -0.008246632 0.017851386 -0.012703088 0.0340107 -0.010482466
-0.007827581 -0.014957141 -0.007665778 0.0017348044 0.011845626 -0.0034716078 0.00089844246 -0.009334771
0.0070203627 0.004506238 -0.013933119 0.059067782 -0.0997603 0.021317257 0.058378592 -0.011715244
-0.013471778 0.025682958 -0.06966452 0.061576374 -0.043069415 0.039773166 -0.020483484 -0.006913738
0.038343467 0.030071054 -0.00312375 0.005752356 -0.03340358 -0.0044337204 -0.05258744 0.0235804
-0.033964887 -0.004331318 0.019178124 0.05144641 -0.0015936132 0.0049863807 -0.037705813 0.009955419
-0.124553666 0.018456843 -0.01507564 -0.01873618 0.03654826 -0.047801338 -0.043376114 -0.06314175
0.018439827 -0.074017234 -0.115417615 0.084899135 -0.101005 -0.015504637 0.106147334 0.081887476
00000000: aad8 a2bd a099 34b9 e453 9aba 66b7 bfbc
00000010: 840b 6b3c 94e6 903b 452f afba 7359 b2bc
00000020: 718c 873c 5479 9cbc 66b4 f1bd 6f72 163c
00000030: afa8 0d3b 4a85 0dbc dab3 0ebb b7b9 9abb
00000040: 88f6 45bc 8663 20bd d582 953c 8080 86bd
00000050: 1129 94bb bc6d b5bb 32c7 cf3a d956 203a
00000060: 8358 f63a 6753 5fba 09f0 be39 55fa 9639
00000070: 10bd 6a39 ab1c c539 db69 013c 1ab3 9e3a
00000080: b59d 673b 136b 2bbc e72b 99bc 67da 043c
00000090: 7c46 993a 1f71 3d3c cb6c 353c 3bf8 e23c
000000a0: a81d 6bbd 25ef 293d ac10 8abd 1d10 883c
000000b0: 213f c63d f9a9 193d e848 b53b 1e7c 5c3d
000000c0: b859 d9bd 4101 283d 18e6 bbbc 483b bf3c
000000d0: 75d6 9bbc 11fc bbbb c928 103b dc2a 613c
000000e0: d277 173a ab1e 853b d15c fbbb 7897 003c
000000f0: 0f56 283d b0f5 b23c 9011 09bc 49d3 11bc
00000100: 4ff3 023b 92b7 1d3b 3107 28bc e3fa ae3b
00000110: 34db 0e3c 7308 633b 03a6 871c 3bee a31b
00000120: 494a fa9a d47e cd1b 7ee4 991b de9a 251c
00000130: cf79 611c 92ea 9c1c b602 bc19 1cad a11c
00000140: 5f03 c53c 8d9f 483d 1de6 c2bd 05c8 02bc
00000150: b2e5 9a3d d6f5 593d 46b8 9dbc 14a6 07ba
00000160: de63 acbd ad8c 3dbd 5527 bdbd d112 f33a
00000170: e90a ce3c 279f 16bd a06d 293c cac5 4b3c
00000180: 091e 07bc 0fd2 6cbd aad3 803d 1100 66bd
00000190: 11fe eabc aec4 d53d 6ea9 a6bd bb7e 12bd
000001a0: 8790 9a3d 05a8 833d 30db 313c b52f 6f3d
000001b0: a6bb c5bc b06e bd3b dc1d 95bd 9253 2b3d
000001c0: cfa2 0ebd 3c4a 50bc 8457 223d b782 d639
000001d0: 19d1 023c dfdc 4d3c 6143 34bd 4226 d53b
000001e0: 2d6e 14bd 130c dc3c 5fa0 abbc 1bc1 1f3b
000001f0: 7ede 053d f3dd 103d ad1d 9e3a 72cd 193b
00000200: 5e7d aa3a 8b20 473c 0ed5 bdbd a6e4 313d
00000210: e492 09bd 37f9 1cbb f5b1 603d e047 e23c
00000220: e4e3 d73b 79b9 263d 87d4 a7bd c4a0 d63c
00000230: 20f6 eebd 6862 6f3c c26e 0abc 289c b9bc
00000240: 53eb 8e3c eb39 e63b 533f dbbc 84ed 51bd
00000250: 0836 193d d2dd 93bd f8a4 c8bc bb53 b5bb
00000260: 60c4 b33b be44 25bd a2fe af3b e29b ebbc
00000270: 9e78 ddbc 11d8 88bd e885 993c 7fc6 07bd
00000280: 8f90 5d3b 4732 c03d 1b16 a3bd 2bbd 29bc
00000290: 67b2 f03d 184d a33c 4767 783b fd51 8f3b
000002a0: 3826 b1bd 143e 71bd f92d 1dbe e25e 283d
000002b0: 957e 27bd 016b cebb a11c 203d 4427 973c
000002c0: 79f9 1c3c 9c1d 513c 9c9c 3cbd 1f59 0ebd
000002d0: f40b 74bd b939 c33d ff4d b7bd 48b3 403a
000002e0: ba96 8c3d 8c97 ca3c 4d4c 923c 205e c43c
000002f0: 487b 6ebd 14d8 59bd 364d 02bd 5c2d a5bc
00000300: 03f1 9b3a cf62 67bc 1f00 51bc e21c 07bc
00000310: 123d 923c 9d20 50bc ce4e 0b3d a6be 2bbc
00000320: 413f 00bc cc0e 75bc 3531 fbbb 6062 e33a
00000330: 2814 423c ea83 63bb 7485 6b3a def0 18bc
00000340: 120b e63b 10a9 933b bd47 64bc 0ff1 713d
00000350: 214f ccbd 87a1 ae3c 641e 6f3d 4bf1 3fbc
00000360: bbb8 5cbc 1165 d23c 46ac 8ebd 8237 7c3d
00000370: 8e69 30bd 30e9 223d fbcc a7bc a38c e2bb
00000380: 0a0e 1d3d 9257 f63c d4b7 4cbb 427e bc3b
00000390: 31d2 08bd be48 91bb ed65 57bd af2b c13c
000003a0: c41e 0bbd bbed 8dbb 711b 9d3c 79b9 523d
000003b0: c9e0 d0ba cb64 a33b 6971 1abd 0e1c 233c
000003c0: fe15 ffbd ce32 973c d1ff 76bc 9e7c 99bc
000003d0: a1b3 153d 56cb 43bd 27ab 31bd 7650 81bd
000003e0: 1f0f 973c 5996 97bd 1260 ecbd 99df ad3d
000003f0: b6db cebd 2907 7ebc c663 d93d 9fb4 a73d
